back-end/analysis/data/set2/pred_model.pth (torch, 495337 bytes, 19 tensors)

weight_ih_l0 f4 [256, 1]
00000000: 5106 003e 9d94 5e3e 6dd8 a4be 0b77 cc3d
00000010: f76f 963e 02a2 c5be 9931 2f3e 8e03 91be
00000020: ecfb 733e 602b 32be 6064 22bd 55f1 5a3d
00000030: cd0b 273e 8314 44bd ff57 b7be 75f6 a23e
00000040: 5e49 17bd d6f3 aebd 376d 92be 6df5 513d
00000050: 445f 07be 014d 2abe 2ee5 af3d c506 b23d
00000060: 10b9 993e a85e fa3d 5d4f 42be 0915 abbe
00000070: fbff 123e 2780 16bd e52d 42be f156 8fbb
00000080: b055 fd3c b2d0 bcbd 662a bfbd 3d73 2d3d
00000090: 9cba 7e3d d7a4 5abd 0b7a 093d 22fb 5e3d
000000a0: 1da4 f8bd e7f9 03bf 30e9 4dbc 9606 c83d
000000b0: ce45 cebe 789a f5be 5ea3 51bd c3be 4d3e
000000c0: 2f80 363e d0f0 c5bc 499d b2bd cf9c 0ebd
000000d0: 6d60 4cbe 1f6b de3d abeb 65be 032b 80be
000000e0: 2d89 e3ba 4110 8d3c 0663 303b 02da c5be
000000f0: 85cd 1f3e caf3 6c3d 261a adbc f9bc 08bf
00000100: 02d9 f13d 2cf0 5a3d 4c94 71bd 6a31 983d
00000110: 1c3b 6ebd 240e 6dbd fc5b 803d a24a f03d
00000120: eca8 94bd 005e ceb9 82db 9c3d 28db d43c
00000130: c6c3 d9bd 802a 06bd c0fc 4bbb 80e3 2f3d
00000140: 809c e1bd 08cb ff3d f20e cabd 8871 fabc
00000150: 3ca0 f33d 9ca3 9abd 5eb1 9abd 7a16 c4bd
00000160: 4cc5 3ebd 7276 d7bd 8025 e9bd 5cd6 d13d
00000170: c03a d3bb 3432 6dbd 8c5f 1e3d fecd c2bd
00000180: b896 a9bd 88ef 2a3d 902d 12bc 5445 353d
00000190: ee41 cfbd c0f4 42bb a8f5 243d 08e3 bf3d
000001a0: 24c1 c7bd 844b 28bd 3012 f6bd e6e5 cb3d
000001b0: 1e1f 863d c0f1 c83c 004f ae3b 645c 463d
000001c0: 04df b9bd eabb f03d d002 6e3d aeab f23d
000001d0: f05f 513d fc14 0fbd fe2f 953d 3a96 e93d
000001e0: f0ab 2dbd 4c6c 9d3d d0b6 d3bd 821c aa3d
000001f0: 48ef 0e3d 3608 c93d cea5 98bd a433 37bd
00000200: 2daa 163f 6452 c0be e696 3abd 7ee0 9dbe
00000210: 3134 ca3e 111a 483e 9de7 ce3e 6552 c4bd
00000220: 1058 be3e 00c6 40be f989 30bc 8112 cabe
00000230: b30e 903e 95c4 2abe d4bc b9be 749f d63e
00000240: 47d5 063f a4be e5bb 835e b83a b31c c93e
00000250: 3c02 aa3e 31bd 96be 7f74 f73e ad43 943e
00000260: 7ce4 cd3e d19b aa3e 4678 263e 44b9 adbd
00000270: 141a b33e bbf9 cb39 4de9 103a 75cf a13e
00000280: d39e c93e 536f b23e 6106 ff3e fca2 c2be
00000290: aa17 a93b 2f06 09bd a123 d23e 3b5d 963e
000002a0: 07c6 8f3a cc02 903e 5469 fbba 2db2 9bbe
000002b0: 36b3 0b3e 2558 513e 1006 113e 08e5 b1be
000002c0: 5c99 e83e bbcb 8abb 5db7 44ba dcd4 df3e
000002d0: 1cf0 303d 3166 73be d75d 9a38 917a ebbe
000002e0: 081f ec3e b17f b23e d10e 8ebe 7f7d 40bd
000002f0: 332f fcbe 9844 a7be 5fd4 b9be ce34 72be
00000300: 9cf2 e33d 5502 a03d f8ed 87be 8828 f63d
00000310: 274a 853e 93e6 9cbe 13ce 1e3d 9cf5 bebd
00000320: c169 de3c c3b9 44be 4fcc 87bd eafb 033e
00000330: dfbd 933d a3c5 e33d 0735 63be d097 0a3e
00000340: 9c6c 0ebe 1189 0bbe cb66 04be be0e bb3d
00000350: 48c3 09be df38 70be 1ec0 8e3e 77b4 afbc
00000360: c03c 703e 00e5 303e 168b cebd a6fd 91be
00000370: f0e7 043c 65d3 e7bd a415 d4bb ebae 0f3e
00000380: 27ec ac3d e904 e8bd bdcb cebd 9747 ac3d
00000390: e986 00bd f017 1fbe f284 233e 910a e33c
000003a0: cf21 57be 7637 09bf 2545 dabd 4b34 8c3d
000003b0: 7d4f 02bf 0d02 ffbe 714f 17be 3e6d 373d
000003c0: 7c88 9f3e d509 5c3d 5ef5 92bd f8ca cfbd
000003d0: 1c3d 543b b19f d33d 6cf3 abbe 670e 9fbe
000003e0: dbbf 763d f8ed bc3d 2bca f8bc 8406 bbbe
000003f0: 79fe 403e 8d25 ad3d 065d 2b3e e878 01bf
0.1250241 0.21736379 -0.3219637 0.09983643 0.29382297 -0.38600165 0.17108764 -0.28323025
0.2382657 -0.17399359 -0.039646506 0.05345281 0.16313095 -0.047871124 -0.35809323 0.31828657
-0.036935203 -0.08542602 -0.2859895 0.051259447 -0.13219935 -0.16630937 0.085886344 0.086926974
0.30024004 0.122250855 -0.18975587 -0.33414486 0.14355461 -0.03674331 -0.1896282 -0.004374378
0.030924648 -0.09219493 -0.09334259 0.042346228 0.062189683 -0.05337986 0.033563655 0.054438718
-0.12140677 -0.51553196 -0.012567803 0.09766881 -0.40287632 -0.47969413 -0.05118119 0.20092301
0.17822336 -0.02416268 -0.08721406 -0.034817513 -0.19958659 0.108602755 -0.22453181 -0.25032815
-0.0017359607 0.017219665 0.0026914491 -0.3864289 0.15605743 0.057849683 -0.021130633 -0.5341335
0.11808969 0.053451702 -0.058979318 0.074313 -0.05816184 -0.057874814 0.062675446 0.11732985
-0.07258782 -0.00039361417 0.07659055 0.025983408 -0.10633044 -0.032755375 -0.0031125993 0.04294157
-0.11016178 0.12489897 -0.09866132 -0.030571714 0.11895797 -0.07550737 -0.07553361 -0.095745996
-0.046574876 -0.105206385 -0.11384106 0.10245964 -0.0064462125 -0.057909206 0.03866534 -0.09511946
-0.082807004 0.04173234 -0.008921996 0.04425557 -0.10119997 -0.0029747933 0.04027334 0.09369475
-0.097536355 -0.041087642 -0.12015188 0.09955959 0.06548904 0.024529338 0.005319476 0.048427954
-0.0907574 0.11754592 0.05810815 0.118491516 0.051116884 -0.03493212 0.072845444 0.114056066
-0.0424003 0.076866716 -0.10337603 0.08306219 0.034896165 0.09816019 -0.074535 -0.044726983
0.5885342 -0.3756286 -0.045554064 -0.30835336 0.39492944 0.19541194 0.40411082 -0.09586028
0.3717656 -0.18825531 -0.010775083 -0.39467242 0.28136215 -0.16676553 -0.36276877 0.41918528
0.52669185 -0.0070112515 0.0014066253 0.39279708 0.3320483 -0.29441217 0.48331067 0.28957883
0.40213382 0.33322003 0.16256818 -0.08482602 0.34980834 0.0003890524 0.00055279286 0.3160359
0.39378986 0.3485056 0.49809554 -0.38014972 0.0051602917 -0.033453163 0.41042808 0.29368004
0.0010969051 0.28127134 -0.001918117 -0.30409375 0.13642582 0.2044378 0.14162469 -0.3474505
0.45429504 -0.0042357123 -0.000750413 0.43717086 0.043197736 -0.23769452 7.360771e-05 -0.45991948
0.46117425 0.34863046 -0.2774568 -0.046994682 -0.4925476 -0.3266952 -0.3629484 -0.23652956
0.111302584 0.07812945 -0.26548743 0.120194495 0.26033136 -0.30644664 0.038770746 -0.0932419
0.027150037 -0.19211487 -0.06630766 0.12889066 0.072139494 0.111216806 -0.22188197 0.13534474
-0.13908619 -0.13626505 -0.12929837 0.09133671 -0.134534 -0.23459195 0.2788095 -0.021448357
0.23460674 0.17274857 -0.10085122 -0.2851383 0.008111939 -0.11319617 -0.0064723063 0.1403157
0.0844348 -0.113290615 -0.10097454 0.08412092 -0.03137866 -0.15536475 0.15968683 0.027715
-0.2100899 -0.5360025 -0.106577195 0.068459116 -0.5090254 -0.49806252 -0.14776398 0.044781916
0.31158817 0.053720314 -0.07175706 -0.10146135 0.0032385057 0.10333193 -0.33584154 -0.31065676
0.06024156 0.092250764 -0.030369839 -0.3652841 0.18847074 0.08454428 0.16734704 -0.50575113

weight_hh_l0 f4 [256, 64]
00000000: 880d 613d a8f1 2ebd be9e f73d a864 c9bd
00000010: a0c9 b73b 486d e0bc 00e4 b63c 7086 30bd
00000020: 40b7 143b f096 923c 083b b03c f68d af3d
00000030: ec55 c63d e2f8 a63d 00e4 f23a 1c42 373d
00000040: a622 dcbd 548c 00bd c0db d8bb 163f 8fbd
00000050: 0afd 8cbd d87b 76bd dc3c 323d 1885 cc3c
00000060: 68f3 cabd b055 13bd b0c1 cd3d 80d4 103b
00000070: 46d3 c53d ee97 f0bd 7608 86bd 1491 ed3d
00000080: 8076 033b 68bb 1cbd 7046 f03c 7ee4 c5bd
00000090: bc2b debd b4a4 283d 5412 403d 8088 d1ba
000000a0: c017 153d d8c7 c7bc 4899 033d 90ae 88bc
000000b0: e263 fe3d a298 a43d 2004 a33d bac8 91bd
000000c0: d068 3b3c be37 cabd 9443 263d f822 44bd
000000d0: 3cc2 8dbd 78e5 e0bc f012 e93d f07a 4cbd
000000e0: 18fd ea3c 44f9 1dbd d0bf 503d 0ec7 9dbd
000000f0: e2dc 9a3d da59 833d 5eac f93d 3aed a93d
00000100: bcc7 cfbd 84f1 463d 8094 a93c 980f 15bd
00000110: bc90 b33d 726a c23d 4009 e6bc ced9 f33d
00000120: c0d6 18bb 24be 913d 5c54 c13d 28f2 013d
00000130: 1cc8 8a3d 109b ac3d 52b6 febd b026 993d
00000140: e82f f5bd 7220 ab3d 3669 d7bd d2ee c53d
00000150: 4074 2c3c 9ce4 d1bd 087c d03c d228 c43d
00000160: c4d2 f3bd bc0e d13d 828d bdbd 121e d8bd
00000170: a0ee 9cbd 5ac0 e43d 9840 ee3c a2a6 d93d
00000180: c009 903b 205a cabb 8c01 64bd 503a e0bc
00000190: 9075 ac3c 40d2 883b 9ee2 99bd f856 dcbc
000001a0: 70b2 4dbd acc3 263d 20b6 87bd 9052 f83c
000001b0: 8034 d23a 0017 103d 8049 1a3d 348b be3d
000001c0: 6857 62bd 90b2 743c 9449 de3d 8846 123d
000001d0: 2a5c e93d d44e b23d f0ae 1c3c fc4a 883d
000001e0: 86c0 edbd 54f7 b5bd 74c6 e93d 1885 b4bd
000001f0: 3087 7d3d 10fb 0c3c 801f 8cba 9049 af3d
00000200: 0ce1 2fbd 1808 9b3c f4b7 f3bd 6057 b7bb
00000210: 1407 9c3d c4a0 31bd 30ad 9b3d 3c08 5e3d
00000220: 2c4b febd 9e1b a63d 20e9 bc3d 88ad e2bc
00000230: 408b 713d 1ab3 9abd 4c90 f33d b211 86bd
00000240: aef7 d4bd 704e 3ebc acfc 9dbd b0bf f2bc
00000250: a8ca be3c aed6 f9bd 70a7 32bd 52f9 893d
00000260: 8ae5 e63d e058 853c 2cd5 86bd c8f8 f1bd
00000270: 0037 d53a 6858 bcbd 866d 9cbd 386e d2bd
00000280: 5a8b dc3d 500c d8bd 889f b43c f4fa 7a3d
00000290: bc84 eebd 8279 b2bd ac52 8f3d 0014 253a
000002a0: e2cf 873d 34ad 9fbd 90a5 6b3d b030 ae3d
000002b0: c8f1 96bd 3640 c9bd 181f 63bd 9c82 5e3d
000002c0: b45a 443d 3839 803d 58c0 80bd b88e e33c
000002d0: 90ef 073c a699 c0bd 26a7 d93d 4aee a03d
000002e0: 6095 c53c e8ff cc3c 9875 bcbc 9a10 e23d
000002f0: 988c 11bd a6f3 803d 0010 0e3c 40b0 33bc
00000300: a0b2 fdbb e09a b2bb e0a3 413d f023 973c
00000310: e45d 9abd f010 df3c c0c6 eabc 5498 733d
00000320: 60fa 9fbb f270 9b3d b8ca 663d 48af d5bd
00000330: d0dd f1bc 28b8 ffbd 802b aaba e8dc 22bd
00000340: 78e0 abbc d077 7c3d 3011 bfbd 523c a1bd
00000350: e80a c7bc ec87 5ebd 70e8 eebc 0071 bdbc
00000360: 005d 02bb 3637 a7bd d053 1b3c 4421 c83d
00000370: e0c3 fabd a6a5 c13d 801b 18bb a0b1 a23b
00000380: c82a 233d 8062 9a3c 1437 d03d 2a4b b33d
00000390: 229b a13d 1cbc e6bd 6027 cf3b d0da 7fbd
000003a0: 44df 2b3d a003 0d3d 469a e5bd b81f b5bc
000003b0: c892 b53d a687 c83d 30fb 5fbc 281c d5bc
000003c0: 9cb2 a6bd d0a7 f43c d059 3abc 549c 393d
000003d0: 580a 9f3c d6b1 bbbd 786d ad3d 8cf5 57bd
000003e0: 0006 14bd 887a a0bd 10f1 893c e26c cabd
000003f0: 2e30 d73d c040 213d fcc5 683d a276 d8bd
0.054944545 -0.04271093 0.120908245 -0.09833652 0.0056087524 -0.02739586 0.022325516 -0.04309696
0.0022692233 0.017894238 0.021512523 0.08571999 0.09684357 0.081529394 0.0018531084 0.04474078
-0.10748796 -0.031383827 -0.006617993 -0.069944546 -0.06884201 -0.0601767 0.04351507 0.024965808
-0.09909707 -0.03597039 0.100467086 0.0022099316 0.09659438 -0.11747728 -0.065445825 0.11599937
0.0020059645 -0.038264662 0.029330462 -0.09662722 -0.108481854 0.0411727 0.04689248 -0.0015986115
0.036399603 -0.024387285 0.032128602 -0.0166848 0.12421395 0.08036925 0.07959771 -0.07118364
0.0114385635 -0.09873913 0.04059179 -0.04788491 -0.06921813 -0.02745317 0.11380565 -0.04992193
0.028685138 -0.038567796 0.050964177 -0.07703982 0.07561661 0.06413622 0.121910796 0.082972005
-0.10145518 0.04857017 0.020700693 -0.036391824 0.0876784 0.09492959 -0.028080583 0.11906777
-0.002332136 0.071163446 0.094399184 0.03172508 0.06776449 0.08428013 -0.124371186 0.07478082
-0.11972028 0.08355798 -0.10518114 0.09664692 0.010525763 -0.10248682 0.025449768 0.09578098
-0.11905435 0.102078885 -0.09255506 -0.105526105 -0.076627016 0.11169501 0.029083535 0.10627486
0.0043956935 -0.0061752945 -0.055665538 -0.027371556 0.021052152 0.0041754544 -0.07513927 -0.026896939
-0.050219 0.04071395 -0.066265345 0.030312806 0.0016037375 0.035178185 0.03766775 0.09303895
-0.05525914 0.014935151 0.10853878 0.035711795 0.11394532 0.087064415 0.009563193 0.06654927
-0.116089866 -0.08885065 0.11414805 -0.08814448 0.061896503 0.00860478 -0.001069054 0.08558953
-0.04293923 0.018924758 -0.11900321 -0.0055951327 0.076185375 -0.04336621 0.07601392 0.05420707
-0.12416682 0.08110736 0.092241526 -0.027670637 0.05897069 -0.07553692 0.11892757 -0.06546344
-0.10398804 -0.011615381 -0.07714209 -0.02963242 0.023289993 -0.1219915 -0.043616712 0.06737007
0.1127425 0.01627773 -0.06583628 -0.118150294 0.0016267002 -0.0919655 -0.076380774 -0.10274929
0.10768767 -0.105492234 0.022048727 0.061274484 -0.11646411 -0.08714582 0.0699819 0.0006297231
0.066314474 -0.07796708 0.05753094 0.0850538 -0.07370335 -0.098267004 -0.055449575 0.054323778
0.047938064 0.062609136 -0.06286687 0.027778015 0.008296862 -0.09404306 0.10627584 0.0785795
0.02411908 0.02502437 -0.023005292 0.11038323 -0.03553447 0.06296472 0.008670807 -0.010967314
-0.007742241 -0.0054505914 0.047275424 0.018449754 -0.075374395 0.027229756 -0.028659225 0.059471443
-0.004882142 0.07589902 0.05634567 -0.10433823 -0.029524714 -0.12486297 -0.0012982935 -0.039761454
-0.020981058 0.0616377 -0.0932945 -0.07872833 -0.024297193 -0.054328844 -0.02916357 -0.023125172
-0.0019891858 -0.081648275 0.009480432 0.0977197 -0.122443914 0.09455423 -0.002320975 0.004965022
0.03983572 0.018845797 0.10166755 0.08754571 0.07890917 -0.11266348 0.0063218325 -0.062464535
0.04196097 0.034427285 -0.11211066 -0.022109851 0.08865887 0.09791498 -0.013670728 -0.026014403
-0.08139536 0.029865175 -0.011373952 0.0453151 0.019414112 -0.09164779 0.08468145 -0.052724406
-0.036138535 -0.07835871 0.01683858 -0.09884049 0.105072364 0.03936839 0.056829438 -0.105695024

bias_ih_l0 f4 [256]
00000000: 538f 0c3f 2d4a f53c ce7d eabe 55de 4bbc
00000010: b0e4 62bd bac4 a3be bae4 3d3e 2bc9 03bf
00000020: 2ec4 dd3d d6f3 30be 20cb 8cbe 6249 da3d
00000030: 7ed8 dbbd ba39 94be 3bb8 8dbd 9c63 953d
00000040: b222 963e 9c62 0ebe 2758 adbe 63e4 0f3e
00000050: 0c8e 0d3d bbce d13c ae18 813e 937a 26be
00000060: e083 f93d 44aa 913d 78b2 8fbe 9d39 aebe
00000070: 5211 973d 94d5 9dbe a26a b0be 3eb9 4abc
00000080: 4486 103e eb05 663c ab85 b53e 64e9 e73d
00000090: 8a80 afbe c3e2 e1be 1d36 053e 4214 a1bd
000000a0: 443d 1fbe ce1a 7cbd 80e5 a6be 6487 d6bd
000000b0: fe4b ccbe bd6d 5abe 38ef 8bbe 5f34 42bd
000000c0: 8476 493e bf59 67be 7914 68be ffcb 033e
000000d0: 1f9d dfbe 2974 81be 3424 a2be 73c8 9a3e
000000e0: d16e 913e de3f e4bd 34df 93bd ab3f 99be
000000f0: 4f12 273e 4474 583d 815f 443d 9082 a5be
00000100: cc0e 58bd d06f b53d 0830 9f3d 508e 1e3d
00000110: 8a25 df3d 504b a4bc 107f 1dbd a002 f4bd
00000120: 2c50 bb3d 9418 09bd e82e 933c a08d f63c
00000130: de98 d33d eed0 9a3d 44c8 ce3d c85e dbbc
00000140: b07c 8cbc 081a f83d 00f3 d93c 8e21 d03d
00000150: 2ed9 efbd ba5c b23d 144c 8dbd 5e03 f03d
00000160: 88b8 58bd 10b2 73bd dccc 1dbd 687c 383d
00000170: f871 ed3c 1012 d93c 50aa 93bc 5085 063c
00000180: 98b9 af3c 84b4 5f3d c254 d73d 7685 a73d
00000190: f005 11bc 7e80 cbbd 7607 b43d 867b e0bd
000001a0: 8ac0 bdbd 8858 953d cc0d 29bd 60fd d83c
000001b0: ee9c a2bd f8e9 873c a0e7 0a3d b86d bdbd
000001c0: 74b5 4c3d de6e f8bd c0bc f83d 780b b3bc
000001d0: 5e35 e9bd 70da ebbc 427a 99bd 7898 d8bc
000001e0: 18db f53c 7887 d3bd ecf8 e63d 28dd edbd
000001f0: c015 dabd e4d4 103d 4694 92bd 24c3 653d
00000200: 891a 7dbd 1cda 373e 1498 823d 84fa d83d
00000210: 0354 7abd be9f 0dbd cb02 60b8 a859 1c3d
00000220: 8a47 04be cd62 d63d f19d 433c 9650 b93d
00000230: d2d9 63bd 49ab 5e3d 72b6 813d 3335 c5bd
00000240: 2ee4 cfbd 428d 4b3d c529 cab9 4f96 88bd
00000250: e9b4 f3bc 9c9b 953d 90ce 48be 5b15 23be
00000260: 8502 6cbc 8419 25bc 202a 5bbd 17fe 273d
00000270: c304 94bc 6273 833c 0bfc 843d d3cc 96bd
00000280: 93f3 dd3c b5fa 2fbe a7e6 39be 4b16 233e
00000290: f5bb a1bc 4052 d93a 46ee aabd 090a 2ebc
000002a0: 093a 08bb fef3 49bc 3d19 67ba d4ef 903d
000002b0: 4967 a9bc a142 1bbc 63ab 8ebd 1bf9 933d
000002c0: 4ebc f6bd 8e12 393d 17e7 823c 4b8a 25be
000002d0: b3f1 7f3c 46bb 933d 5211 943d dd4c 503d
000002e0: 54e8 96bd f9f7 f5bd d1c0 693c 7943 b7bc
000002f0: e877 053e f3ae bb3d 3d3c 183e b176 a8bb
00000300: 1ff8 043f 4147 0e3e 8c74 fdbe 7fc6 223c
00000310: c665 42bb eaee 27be 490a a23d d2ba c1be
00000320: d9c6 59bd 7421 80be 32b1 4ebe fe8a d43d
00000330: 4216 00be c270 9bbe f9d1 28bd 929e ec3d
00000340: 2bd1 ee3e 89f9 32be ab64 6ebe e2f8 2a3e
00000350: 2a65 91bc 1ee8 ddbd ef5d 563e dfba 343c
00000360: d9a2 4d3d 1dcf dfbd 103b d8be 0939 c2be
00000370: a1e1 033e 0c79 08be 765d 40be fce2 17bd
00000380: 958a 013e f800 abbc 4c9f 8c3e f04a c93d
00000390: 3052 59be f7cd 60be add2 313e a638 64bd
000003a0: ffbe acbe bb21 3dbe 6181 8abe aba3 033d
000003b0: 2b95 c1be d92e 4dbe 09c5 3dbe 4327 903d
000003c0: 1726 0d3e 7ef0 8dbe 00dc b2be ef53 923e
000003d0: c93c e5be 5542 cdbd 7b4e bbbe ef5f 013e
000003e0: 73f6 6f3e c5c9 36bd f56e b2bd ef11 8bbe
000003f0: e4d3 813e 5858 1abe e9a3 653d 40c2 a6be
0.54906195 0.029942596 -0.45799106 -0.012443145 -0.055393875 -0.31986028 0.18544284 -0.5147883
0.10828434 -0.17280516 -0.27498722 0.10658528 -0.10734652 -0.28950292 -0.06919905 0.072943896
0.29323345 -0.13904804 -0.33856317 0.14051966 0.034559295 0.025611272 0.25214142 -0.16257696
0.12183356 0.07112554 -0.28065848 -0.3402833 0.073763505 -0.3082701 -0.34456354 -0.012373267
0.14113718 0.014039497 0.35453543 0.113238126 -0.34277755 -0.44118318 0.13008924 -0.07865192
-0.15550715 -0.061549 -0.3259697 -0.104750425 -0.39901727 -0.21330924 -0.27330947 -0.047413226
0.19674116 -0.22592829 -0.2266406 0.12870787 -0.4367456 -0.25283936 -0.31668246 0.30231056
0.2840486 -0.11144994 -0.07220307 -0.29931387 0.16315578 0.052845255 0.047942642 -0.32326174
-0.052748486 0.08859217 0.07772833 0.03870994 0.10895832 -0.020055443 -0.038451254 -0.11914563
0.09146151 -0.033470705 0.017966703 0.030096829 0.103318915 0.075593814 0.100967914 -0.026778594
-0.0171493 0.1211434 0.02660513 0.1016265 -0.117113456 0.087090924 -0.068992764 0.11719392
-0.052910358 -0.059495986 -0.038525447 0.045040518 0.028985009 0.02649787 -0.018025547 0.008210495
0.021450803 0.054615512 0.10514213 0.081797525 -0.008851513 -0.09936617 0.087904856 -0.1096106
-0.092652395 0.072922766 -0.041272923 0.026488006 -0.07940088 0.016591057 0.0339123 -0.09249443
0.049977735 -0.12130521 0.12145376 -0.021856055 -0.11387132 -0.028790683 -0.07494022 -0.02643989
0.030011699 -0.10328573 0.11277947 -0.11614448 -0.1064868 0.03535928 -0.07157187 0.056094304
-0.061792884 0.17954296 0.06376663 0.10594657 -0.061115276 -0.03457617 -5.3408363e-05 0.03817144
-0.12917915 0.104680635 0.011939512 0.09048574 -0.05562765 0.05436257 0.06333627 -0.096292876
-0.10150944 0.04969526 -0.00038559563 -0.06669294 -0.02974935 0.07305071 -0.19610047 -0.15926115
-0.014404898 -0.010076884 -0.05350697 0.041013803 -0.018068677 0.01604623 0.06493386 -0.07363286
0.027093684 -0.17185481 -0.18154393 0.15926473 -0.019742945 0.0016580299 -0.08346228 -0.01062251
-0.0020786545 -0.012326239 -0.00088157115 0.070769936 -0.020679133 -0.009476335 -0.06966283 0.072252475
-0.12047635 0.04518371 0.015979333 -0.16166036 0.01562159 0.07213454 0.07229866 0.050854553
-0.07368532 -0.12010188 0.014267162 -0.02237104 0.13034022 0.09164228 0.14866729 -0.0051411022
0.519411 0.13894369 -0.4950298 0.0099350205 -0.0029662712 -0.16399732 0.07912118 -0.37837845
-0.05316815 -0.25025523 -0.20184782 0.10378073 -0.1250849 -0.30359465 -0.04121587 0.115536824
0.46643957 -0.17478003 -0.2328059 0.16696504 -0.017748434 -0.108352885 0.2093427 0.011030882
0.05020413 -0.109281756 -0.4223256 -0.3793414 0.1287904 -0.13327426 -0.18785653 -0.037081704
0.12650521 -0.020874485 0.27465284 0.09828746 -0.21222758 -0.2195357 0.17365523 -0.055718087
-0.33739468 -0.18469898 -0.27051833 0.032138508 -0.3780912 -0.20037402 -0.18532194 0.070387386
0.13784061 -0.27722543 -0.34933472 0.2857966 -0.44772938 -0.100224175 -0.36583313 0.12634252
0.23433857 -0.044626016 -0.087125696 -0.2716212 0.25356972 -0.15072763 0.05606452 -0.32570076

bias_hh_l0 f4 [256]
00000000: a13b 063f 7ca8 843b 308d babe d634 b3bc
00000010: 6f08 153e c254 80be fb39 d73d b4e7 f4be
00000020: cf21 373d e052 7ebe e8d6 7ebe 8886 8e3d
00000030: 5052 42be 1f59 2cbe e565 f53d 3c97 86bc
00000040: 44ed aa3e 134e 0fbe 45de 8bbe 75b4 2e3e
00000050: 6497 0abe d135 acbd 929d cd3e 2472 96bc
00000060: 0f46 053e 2531 dabb d3ee 78be 624e f8be
00000070: 4284 973c c077 5fbe fec7 5ebe cd9b da3b
00000080: 98e8 1a3e bcc8 653d 9f17 eb3e c3de 82bd
00000090: b5bf 88be d3d5 5dbe 751b fd3d f8bb b7bd
000000a0: cdc4 aebe e137 68be 9dcd 56be 13f3 2d3d
000000b0: c70e 8cbe 46a5 b0be 806b 61be cb52 cf3b
000000c0: 5473 153e b530 b2be 3340 d7be d123 583e
000000d0: 94de 86be bc6f 39bd bacd e4be 23f7 e83d
000000e0: 4743 483e 1b08 0bbe 0e49 05be a115 c9be
000000f0: f302 1a3e 4541 dabd 7505 0ebd 3c87 98be
00000100: 12bf 81bd c018 b1bb f8f4 0abd 4673 cc3d
00000110: f854 263d e83f 9c3d a453 bcbd b423 40bd
00000120: 6053 fdbd e0f5 0ebd 6a05 b73d c0bc 55bd
00000130: 282b a93c 96df 973d a8e7 6c3d 0a5f e63d
00000140: 2667 c0bd e4e5 f0bd a6ab e4bd f05b 7bbd
00000150: 40ce bb3c 6695 85bd 5035 0cbc 60e1 c83b
00000160: b0bb 343d 0095 2abd 24e8 af3d f0cb c9bc
00000170: eecb d0bd 1c77 813d 44e9 46bd 249b 613d
00000180: e07a eb3b 1a9a b73d 5c90 b93d ec76 6bbd
00000190: 4009 0c3d 4423 f73d 18b0 47bd 4081 903b
000001a0: be37 f53d fc34 4abd 40e6 1dbb 1c79 a6bd
000001b0: ec7e 8f3d 70a9 603d 90d2 cfbd f0d1 a53d
000001c0: 9a26 853d 9064 4dbd 7260 92bd e47f abbd
000001d0: 002f 92bc 641b 503d 4005 19bc 068c edbd
000001e0: 70bf 503c 7083 83bd 04b6 0dbd 9843 ddbd
000001f0: 4295 dfbd 8c95 38bd 5ee6 dcbd 5e58 dabd
00000200: 094f 55be 1ff5 49bc 1990 22bd a927 1f3d
00000210: 8897 c1bd 5e5c 77bd 92f8 30be 991c 403c
00000220: 5d09 17bd 1082 17bc b5ee 2cbc be13 a63d
00000230: cee4 9dbd 99be 113d ecb6 de3d 24d1 72bd
00000240: c521 19be 803e 39bd 8430 72b8 af91 e4bd
00000250: ff73 06be 3c96 903d 8a6a 03bc 59b4 a33c
00000260: eb76 0dbe 84a5 12be 0716 f6bc b049 9d3a
00000270: ebd5 10be 7dec 88bc 79bc 86bd 1727 9cbd
00000280: d56c 4ebe 2869 ff3b bcd8 5abd c16b 303c
00000290: 8ab2 8c3c d3e6 8a3c 28c2 c7bd 9a54 09be
000002a0: 764f 123a ca95 ecbd 548d 003b 423b 9f3d
000002b0: 4002 2fbd 6138 aabd ba7b abbb b3cb 9b3d
000002c0: 7949 73bd a6dc 2cbd 49d6 80bc aa74 28bd
000002d0: cd02 24bd 64f4 533d 9b38 94bd f3b3 333e
000002e0: 47ea 0cbe 75b1 1fbd 8f6a 023e 60d4 403d
000002f0: c65b a03d 4968 8a3d 9c36 8c3c bdf0 e13d
00000300: a705 163f 0572 a7bc 18a5 efbe a702 6abd
00000310: 0b7c 0e3e 7e86 a8be 4b35 003e 0ae9 05bf
00000320: 85e2 503d 860c 71be 0852 57be b53d 0b3e
00000330: 1b0c 4ebe fa6c a8be 3804 db3d b5ed 1c3e
00000340: 911c ca3e d7d6 11be 51f2 e5be ad94 f03d
00000350: 4d2f a03c b57d 31be 2cdb ae3e 214b 3cbd
00000360: 9072 bd3d 03c5 84bd cf71 cebe 8e7d 01bf
00000370: b2aa c53c 9eea 81be ede2 f3bd 7d9c ffbd
00000380: e8b1 f03d 0e26 38bd d0c2 a73e 7eef 173e
00000390: eca4 6ebe a8e1 94be 09e9 f63d bec2 473c
000003a0: 79bc 85be c3ed c1bd aa99 7bbe 99a2 96bc
000003b0: 53af aebe 3d07 33be 1cab 98be 3a86 8bbd
000003c0: 4b54 963e 1905 1ebe a7b1 b3be fd2b 8b3e
000003d0: 2fd3 a0be dc3c 0bbe 1160 e5be 8fec 083e
000003e0: 5701 703e 8c37 cabd fbc2 6cbe fa07 d4be
000003f0: 96ee 463e aa65 5a3d c72d 083d c477 adbe
0.52434736 0.004048405 -0.36435843 -0.02187578 0.14553998 -0.25064665 0.10509106 -0.47833025
0.044709977 -0.24836302 -0.24886668 0.069592535 -0.18976712 -0.16830872 0.119823255 -0.016429536
0.33384144 -0.13994627 -0.27318016 0.17061026 -0.13534313 -0.08408702 0.4015928 -0.018364973
0.13015006 -0.0066586905 -0.24309854 -0.484973 0.018495683 -0.21823025 -0.21755978 0.006671405
0.1512779 0.05609964 0.4591646 -0.06390145 -0.2670876 -0.21663599 0.12358753 -0.08971399
-0.34134522 -0.22677566 -0.20976873 0.04246814 -0.27355024 -0.34501094 -0.22013664 0.0063270084
0.14594775 -0.34802786 -0.42041168 0.21107413 -0.2634169 -0.045272574 -0.44688207 0.113752626
0.19556914 -0.1357731 -0.1301615 -0.39274314 0.15040188 -0.106569804 -0.034673173 -0.29790676
-0.06335272 -0.0054045618 -0.033925027 0.09982924 0.040608376 0.07629377 -0.09195641 -0.04690905
-0.12369418 -0.034902453 0.089365795 -0.05218196 0.020650461 0.074156925 0.057838112 0.11248596
-0.09394674 -0.11762598 -0.11165552 -0.061366975 0.022925496 -0.06522636 -0.008557633 0.0061303824
0.044124305 -0.041646004 0.08589199 -0.024633378 -0.101951465 0.063215464 -0.048562303 0.055079594
0.0071862787 0.089649394 0.090607375 -0.05748646 0.03418851 0.12067273 -0.04875192 0.004409939
0.119735226 -0.049366936 -0.0024093539 -0.081285685 0.0700663 0.05484909 -0.101475835 0.08096683
0.06501503 -0.050144732 -0.07147302 -0.083740026 -0.017844677 0.05080737 -0.009339631 -0.11598973
0.012740955 -0.06421554 -0.03459741 -0.10803908 -0.109171405 -0.045064494 -0.107861266 -0.10661386
-0.20830931 -0.012326508 -0.039688203 0.038856182 -0.094527304 -0.060390823 -0.17282322 0.011725568
-0.036874164 -0.009247318 -0.010554959 0.08109234 -0.07709657 0.03558216 0.10874733 -0.059281483
-0.14954288 -0.04522562 -5.774248e-05 -0.111605994 -0.13130186 0.07059905 -0.008021006 0.019983457
-0.13814895 -0.14320952 -0.0300398 0.001200011 -0.14144103 -0.016714329 -0.06578917 -0.07624643
-0.20158704 0.007794518 -0.05342935 0.010767878 0.017174978 0.016955769 -0.09753829 -0.13411179
0.00055812986 -0.115520075 0.0019615488 0.077749744 -0.042726755 -0.08311535 -0.005233255 0.07607212
-0.05939624 -0.042202614 -0.01572718 -0.041126885 -0.040041734 0.05174674 -0.07237359 0.17549114
-0.13761245 -0.038987596 0.12735961 0.047077537 0.078300044 0.06758172 0.017115884 0.11032245
0.58602375 -0.020440111 -0.46805644 -0.057131436 0.13914506 -0.3291511 0.1252033 -0.52308714
0.050997276 -0.23539934 -0.21027386 0.13597758 -0.20121805 -0.32895643 0.10694164 0.15325053
0.3947492 -0.14242111 -0.44911435 0.11747108 0.019553805 -0.1733311 0.3415159 -0.045970086
0.09250367 -0.064828895 -0.40321204 -0.50582206 0.024129245 -0.2537431 -0.11908517 -0.1248102
0.11752683 -0.044958167 0.32765818 0.14837453 -0.233051 -0.29078412 0.12056167 0.012192426
-0.26120356 -0.094691776 -0.24570337 -0.01838808 -0.34118137 -0.1748323 -0.29818046 -0.06812711
0.29361185 -0.15431632 -0.35096475 0.27181998 -0.3141112 -0.13597435 -0.44799855 0.1337149
0.23438011 -0.09873876 -0.23121254 -0.41412336 0.19426951 0.05331961 0.03324678 -0.33880436

weight_ih_l1 f4 [256, 64]
00000000: 3e47 5c3e 64ca 2b3d 3a2c 32bd a10e e0bd
00000010: 1f1a 15bd 853c 703a 5473 e8bc 36cd 953d
00000020: 5cf1 babc 08db bdbc 289a d53d 2888 a83c
00000030: 2292 673d 2207 08be 4c3d 433d 6e54 293e
00000040: 5d34 6e3d 24c3 efbd a63a d43d 6282 253e
00000050: fd03 6ebd 130c c9bd 9c48 263e 3bd8 85bd
00000060: 058f 003d 346c c1bc 219b c03d 9f9d 02be
00000070: e57f 353e b860 deba 6d90 b9bd 2db6 b53d
00000080: c8ea 0ebd 5924 a73d 7866 a03d 52c4 eebd
00000090: a717 9ebb 9c26 ebbd 5b37 d73d cb66 0f3e
000000a0: c8eb d6bd 0f78 f7bd 94bc d5bd e45b 78bd
000000b0: 35ba f3bd 3465 913d 1b2e a83d 35fb 94bd
000000c0: 265b db3d a121 8fbd edd1 8cbc 263b c2bd
000000d0: ae13 1a3e 460e 223d c749 2c3b db1c 2d3e
000000e0: b510 e1bc 4afd 033e 4a47 043d 9890 8c3d
000000f0: b20d 3ebe 41b6 013d bf75 d23c c898 e8bc
00000100: 78ad 383e 6dbf a63d 981b 24bd 5236 7b3c
00000110: 0ba6 59bd 6e72 593d e7f3 e7bd 6ff3 9b3a
00000120: 2c6e 873c 3217 b23d 2d1b a7bc cabd 613d
00000130: e639 e9bd 50ac f53d 27d5 a53c 2283 c3bd
00000140: 444a 133e a6df 10bd 19d0 c23c 6a77 b53d
00000150: 5214 fabd 6797 e23d c9d7 43bd 8034 913c
00000160: eedf ac3d 4dc3 d3bc c2d5 22be f6ac c33c
00000170: 49a2 4ebd d8be 92bd 912c 86bd 536e 83bd
00000180: 5ae2 683d 0460 11bd 37a0 5d3d 2213 e73d
00000190: bfec e6bc b1ed f23d 3fa8 c83d a300 2cbd
000001a0: 92c3 92bd b284 0abe a7fe d53d e23f c43a
000001b0: aa27 863d 33e0 ccbd 43a2 e9bd 5ae2 df3d
000001c0: 7506 a43d d9ed a1bc 9d79 9e3d 4075 2f3d
000001d0: b2d1 813d ae30 81bd 4ba8 4c3d 7a5f 223d
000001e0: 9c4f d4bd 246b 01be 4337 3d3d c1ae 833d
000001f0: 0515 913d 45a5 813c eeeb b13d b283 163d
00000200: ca45 873c 88d6 3ebd de8c 03be 5bae 15be
00000210: ac33 693c 6127 05be 2bcc 4fbd d782 05be
00000220: cfe3 853d 8f98 153d 769c 193e f35d 0c3d
00000230: e56e 263e 7cb7 47bd 9d0a b73d 2d05 2e3d
00000240: c2b2 edbc 1da8 bdbd ddfb 773d df13 2a3e
00000250: 1af1 d1bd 37fd 853d 8cfa 94bd a756 c73d
00000260: b40f 4a3e 36b0 253e 134a 8ebd b180 1bbe
00000270: fa80 b43d b807 94bd d4eb eebd 82e7 593d
00000280: 2012 8e3d ab7a 2e3c ce03 0d3c c80e cdbd
00000290: 12f5 b8bd 9e64 d13b 3be7 8b3d 2043 e83d
000002a0: e4a9 b1bd 6c93 5f3d 9819 a0bd 837b 8f3c
000002b0: 2b67 173d 8a52 95bd bf7a 64bd c7e5 a0bd
000002c0: 071c eb3d 08a6 a7bb f9f9 ef3d 24f4 98bd
000002d0: 07c0 1cbd e2da 3e3c 7e3f 25bd 66eb 3c3e
000002e0: 1e5a d43b 227e 0f3e be1a a0bc dfa1 f6bc
000002f0: 36c0 dabb 2112 01be 19b4 8e3d 9973 bcbd
00000300: cd2e 3e3e f392 efbd d1ee f7bd cdf7 88bd
00000310: e0bf b8bd e33d 4a3d 56a8 c33d 646f e73c
00000320: 05db c73d 687e 1dbe 721c e1bd 3173 42be
00000330: 5b0a 8fbd 03a6 ca3d a165 56be a56f c2bd
00000340: 4d4f 2a3e b652 a73d e075 b73d ece9 603d
00000350: 8651 463e 6139 29be 7047 033e 87ad 97bc
00000360: e355 08bd d049 183d e6e3 673d 3ead b33d
00000370: d4a0 003e 1124 b9bc c1e1 66bb 0cc7 393e
00000380: ec16 273e ecd0 ec3d e081 a33e 259d f1bd
00000390: a9de 8abd dc6e b0bd a3a1 143e ecfb 2b3e
000003a0: 4089 873d d85b f83d 8292 a1bd 13fe 65be
000003b0: e91c af3d 3b5a 8c3e 1506 993c 56b5 80bc
000003c0: 6c81 133e 20b0 043e f25c 95bd 8d78 ab3e
000003d0: 7f16 debc cc72 10be 1ff3 9a3d 3661 3abe
000003e0: 1449 1a3e 5497 923d aba3 cc3c 6321 b9bd
000003f0: 0d77 18ba 9106 57bc 3dd5 9fba 3174 1abe
0.21511552 0.04194106 -0.04349921 -0.1094029 -0.036401864 0.00091642916 -0.028375305 0.073145315
-0.022820167 -0.023175731 0.104297936 0.020572737 0.056535847 -0.13283971 0.04766588 0.16536114
0.058155406 -0.11707142 0.10362749 0.16163018 -0.058109272 -0.09816756 0.16238636 -0.06535383
0.031386394 -0.023611166 0.094045885 -0.1275544 0.17724569 -0.001696608 -0.0906075 0.08872638
-0.034891874 0.0816123 0.07832044 -0.11658539 -0.004824597 -0.114819735 0.10508605 0.14004056
-0.104941905 -0.12083446 -0.10436359 -0.06063451 -0.119007505 0.07099381 0.08211919 -0.072744764
0.107107446 -0.06988836 -0.017189944 -0.09483938 0.1504657 0.039564393 0.0026289092 0.16905539
-0.027473787 0.12889591 0.03229455 0.068635166 -0.18559912 0.03166795 0.025690911 -0.028393164
0.18034923 0.0814198 -0.040065378 0.015332775 -0.053136867 0.053087644 -0.113258176 0.001189811
0.016532026 0.086958304 -0.0203987 0.055112638 -0.113879964 0.119957566 0.02024324 -0.09546496
0.14383799 -0.035369538 0.02378087 0.08860667 -0.12210907 0.11064034 -0.04781321 0.01772523
0.08441149 -0.025849963 -0.15901855 0.023886185 -0.050447736 -0.07165307 -0.06551469 -0.06417527
0.05685649 -0.03549196 0.05410787 0.11282946 -0.028189061 0.11861742 0.097977154 -0.041992795
-0.07166208 -0.13527182 0.10448962 0.0014972652 0.06550534 -0.100037 -0.11407902 0.10931845
0.08009044 -0.019766735 0.0773804 0.042836428 0.06338824 -0.06308113 0.049965184 0.039641835
-0.10366747 -0.12638527 0.04619528 0.06429816 0.07084087 0.015825877 0.08687578 0.03674669
0.01651277 -0.04659131 -0.12846705 -0.14617293 0.014233511 -0.13003303 -0.05073182 -0.13038193
0.06537592 0.036522444 0.15001091 0.034269284 0.1625324 -0.04875897 0.08937571 0.042485405
-0.029015902 -0.09260581 0.06054293 0.16609143 -0.102510646 0.065424375 -0.072743505 0.097333245
0.19732553 0.161805 -0.06947722 -0.1518581 0.08813663 -0.07228035 -0.116660744 0.0531993
0.06937051 0.0106493635 0.008606864 -0.10012585 -0.090311185 0.0063901683 0.06831213 0.11340928
-0.08674982 0.05458395 -0.078173816 0.01751495 0.036963623 -0.07291134 -0.055781122 -0.078563266
0.11479955 -0.005116228 0.117176004 -0.07468441 -0.03826907 0.011648865 -0.040343754 0.18449172
0.0064804694 0.1401296 -0.019544002 -0.030106483 -0.0066757454 -0.12604572 0.06967945 -0.09201736
0.1857254 -0.1169795 -0.121060975 -0.06687889 -0.09020972 0.049375426 0.09553592 0.028251357
0.097585715 -0.15380251 -0.10991754 -0.18989255 -0.06984397 0.098949455 -0.20937206 -0.09493951
0.16631813 0.08170073 0.0895803 0.054910585 0.19367036 -0.16525795 0.1282022 -0.018515361
-0.033285033 0.037179768 0.056613825 0.08773278 0.12561351 -0.022600206 -0.0035229775 0.18142337
0.16317338 0.11563286 0.31935024 -0.11797551 -0.0678075 -0.08614895 0.14514785 0.1679532
0.06617975 0.12126893 -0.07889272 -0.22460203 0.08550436 0.2741259 0.018679658 -0.015711468
0.1440484 0.12957811 -0.072931185 0.3349041 -0.027110336 -0.14106292 0.07565903 -0.18201146
0.1506694 0.0715777 0.024980387 -0.09039571 -0.000581608 -0.013124124 -0.0012194287 -0.15083386

weight_hh_l1 f4 [256, 64]
00000000: 80fc 4f3c d894 72bd a869 cdbd 3c72 7c3d
00000010: 8cbc 04bd 5092 cdbc 58f0 acbd 7076 dabd
00000020: 5a25 f0bd 3432 d6bd 7ca4 4dbd 685d e4bc
00000030: 10e4 e13d c808 b2bd 0a65 a63d 46fd a43d
00000040: 5820 3abd a02a d4bb 881f 723d 3080 2d3d
00000050: 8c7f b2bd 6c91 1bbd 508c a73d 2e61 acbd
00000060: ba0b f8bd f809 1abd 321d bc3d d0e4 d1bd
00000070: 8093 55bb 9023 393c 88b5 f93d 1e44 da3d
00000080: 6022 973c 089c c5bc b82a e83c 5c25 2abd
00000090: 20c3 d0bc 00b0 6b39 3412 6a3d 602f 833c
000000a0: d649 bfbd 90c6 10bd 905f 2e3d a481 74bd
000000b0: f226 f43d 84c9 b73d a615 e03d 68c7 28bd
000000c0: 8420 1fbd cc10 123d 602a 5dbc 74c5 c4bd
000000d0: 1895 c9bd d873 ccbc 181a b4bc 1856 e5bc
000000e0: 8043 d53d 3055 123d e802 203d 001e 3fbc
000000f0: b079 f4bc 64bf 09bd e848 c23c 28d7 c83d
00000100: e29f bdbd c006 b7bb 685e 603d aa4d e5bd
00000110: c8a6 49bd ca20 e63d 4654 82bd c045 5abd
00000120: 7cb3 313d 30c7 95bd 5804 d7bd b0ad 723d
00000130: 6039 623d 20fc c23d c0be 2cbb b24f b83d
00000140: bc61 773d 58ff 59bd 5cdb b3bd 78b4 a3bc
00000150: a078 123d 9003 373d c61f 863d aea2 dbbd
00000160: f4d7 523d a625 cc3d 4cd5 47bd a8d0 a4bd
00000170: 281e 823d 183e c7bd a819 5c3d 94a7 683d
00000180: f006 4e3c 80fa 9cba 2052 1abc 209d 2a3d
00000190: 80fc cbbb 1813 673d 0048 2dbc 389d 3c3d
000001a0: 2071 483c a039 b6bc 6a00 f2bd b832 86bd
000001b0: 7622 b63d 3cc2 a33d 6c8b aa3d 461a e93d
000001c0: dc0c c9bd 802b abbd e85b eb3c 5ce1 99bd
000001d0: 56bf fe3d e2ef d6bd 980d 7b3d 068a ea3d
000001e0: 4882 bcbd 00fa b43b f846 8fbd 3c14 56bd
000001f0: acee a6bd 308a 8dbd 00c7 743b 50a4 1e3d
00000200: 9487 7b3d 6cca 04bd 549e 36bd 98db da3c
00000210: 4452 81bd c095 3fbc 00a0 ae3d 7a13 92bd
00000220: 7027 65bd 6c24 94bd 9851 ee3d eccb cebd
00000230: aee5 ce3d 227b f03d 1891 b8bd 144c c7bd
00000240: f80f 413d 407c dd3b ee94 d63d 0089 f7bc
00000250: 0c00 623d 2864 fdbc 2072 95bc 50ac e73c
00000260: 282b 4abd 58d7 c4bc c806 76bd f841 bc3d
00000270: 224c b4bd a899 de3c a860 d43c d0b8 023c
00000280: 6022 af3c 245e d8bd de09 df3d 00f4 a3b9
00000290: 10b1 e5bd bc6e 57bd 3cf2 55bd f0f0 f4bd
000002a0: c0fb 10bd 7000 9c3c 6632 b9bd 58c4 633d
000002b0: c037 813c 3c58 2b3d fa86 b03d aa96 893d
000002c0: 00c0 afb8 a88c f6bc d424 39bd b8d5 e5bc
000002d0: e8cc 6e3d 081c f43d 2a97 b33d 10fd 063d
000002e0: 94a9 66bd 708a d0bc 58bf c8bc d44e b8bd
000002f0: 2cfb 44bd e01e f23c 1096 2ebd 28ee 9c3c
00000300: b40c 89bd eccb 633d 402c c6bd e055 1cbc
00000310: 48d9 e23d cc70 533d 0a62 8b3d 800a 30bb
00000320: 407f cdbc de27 c8bd f098 ed3d f8a3 603d
00000330: a0f5 7c3c 78ff c33d 08c9 eabc 8015 63bc
00000340: 20d3 5a3d 40a0 0cbb d276 acbd 64b2 cb3d
00000350: 0003 9fbd 2438 f13d ec02 8bbd e216 b33d
00000360: 04ad ea3d 601c 323d 56df cfbd 0015 213b
00000370: 362d c3bd 5828 88bc f215 80bd c00f c1bb
00000380: ae14 9bbd 901c 9c3c f6bb 973d 28a4 c4bc
00000390: 0265 bd3d 44ba 0e3d 2add c3bd 8062 efbc
000003a0: c040 7abb cc5b 8abd 149f bdbd 68b9 3dbd
000003b0: 788f b0bc 8044 a6bb bc35 bdbd 844a 61bd
000003c0: 4822 903d e647 8dbd b092 fe3d e00b 88bc
000003d0: 1e0f a4bd 486f 81bc 4c3b 7a3d 30ed 943d
000003e0: 18bd 40bd c07e df3b 1e78 c8bd 40be 60bb
000003f0: 02a5 b4bd f08f 4abc fa16 c73d b83b 973d
0.012694478 -0.05922398 -0.10029918 0.06163238 -0.032406375 -0.025094181 -0.084442794 -0.106671214
-0.11725874 -0.10458794 -0.050205693 -0.02787657 0.110298276 -0.08693081 0.081247404 0.080561206
-0.045441 -0.006474808 0.0591121 0.042358577 -0.08715734 -0.037980482 0.08181059 -0.08416973
-0.12111612 -0.037607163 0.09185256 -0.10248721 -0.0032589138 0.011299983 0.121928275 0.106575236
0.018449008 -0.024122253 0.028340682 -0.041539535 -0.025483668 0.00022476912 0.057146266 0.016013801
-0.09340255 -0.035345614 0.042571604 -0.059693947 0.11921491 0.08973983 0.10941629 -0.041205794
-0.03884937 0.03566055 -0.0134988725 -0.09607974 -0.098428905 -0.024957582 -0.021985099 -0.027995154
0.10413265 0.035725772 0.03906527 -0.011664867 -0.029843181 -0.03362979 0.023716405 0.09806663
-0.09259011 -0.0055855215 0.054777533 -0.11196454 -0.04923132 0.11236723 -0.0636373 -0.053289175
0.04338406 -0.073133826 -0.104988754 0.059247673 0.0552305 0.09520745 -0.0026358813 0.08999576
0.06039594 -0.05322203 -0.08782074 -0.019983515 0.03575957 0.04468113 0.06549029 -0.10724388
0.05147548 0.09968118 -0.0487874 -0.080476105 0.06353408 -0.0972864 0.053735405 0.05680044
0.012574896 -0.001197651 -0.009418994 0.041653752 -0.0062251687 0.056414694 -0.010576248 0.046048373
0.012234002 -0.022244275 -0.11816485 -0.065526426 0.08893292 0.07996032 0.08327374 0.113819644
-0.09816906 -0.08357906 0.028730348 -0.07513687 0.12438838 -0.10494973 0.06129226 0.11452107
-0.09204537 0.0055229664 -0.06995958 -0.05226539 -0.08150992 -0.06911123 0.0037350059 0.03873092
0.061408594 -0.032419607 -0.044584587 0.026716039 -0.06314519 -0.011693418 0.08526611 -0.07132621
-0.055945814 -0.072335094 0.116366565 -0.10097489 0.10102402 0.11742236 -0.090120494 -0.097313076
0.04713437 0.0067591965 0.10477625 -0.030216694 0.055175826 -0.030931547 -0.018242896 0.028280407
-0.049357563 -0.024028465 -0.06006506 0.0919227 -0.08803584 0.027172878 0.025924996 0.007978633
0.021378696 -0.10564831 0.10890554 -0.00031271577 -0.112154126 -0.05259584 -0.052232966 -0.11960018
-0.035396338 0.019043177 -0.09042816 0.05560717 0.015773654 0.041832194 0.08619495 0.0671819
-8.380413e-05 -0.030096367 -0.045201138 -0.02805601 0.058300883 0.11919409 0.08769067 0.032956183
-0.056314066 -0.025456637 -0.024505302 -0.0899941 -0.0480911 0.029555738 -0.04262358 0.01915653
-0.06691876 0.055614397 -0.09676409 -0.009541959 0.11076599 0.051621243 0.06805809 -0.0026861727
-0.025085092 -0.09773229 0.11601436 0.054843873 0.015439421 0.09570211 -0.028660312 -0.0138601065
0.053424 -0.002145782 -0.08421101 0.09946135 -0.07764244 0.11778286 -0.06787667 0.08744599
0.11458781 0.04348409 -0.1015002 0.0024579167 -0.09530108 -0.0166208 -0.06254186 -0.00589177
-0.07572304 0.019056588 0.074088976 -0.024004057 0.09247781 0.034845605 -0.09563668 -0.029221773
-0.0038185567 -0.0675579 -0.09258857 -0.046319395 -0.021552786 -0.005074084 -0.09238765 -0.055002704
0.07037789 -0.06898479 0.12430322 -0.016607225 -0.08010696 -0.015800133 0.061091706 0.072718024
-0.047055334 0.0068205297 -0.097885355 -0.0034293085 -0.08820535 -0.012363419 0.09721179 0.07384437

bias_ih_l1 f4 [256]
00000000: fc61 143e 300e 47be 6a03 ba3d e169 c4be
00000010: 8383 3cbe c637 47be c83d 3d3d bf35 2cbe
00000020: 07a0 10bd f594 653d 0623 12bd aeae e63c
00000030: bc87 81be b168 81bd a68c 1c3e cce2 0abe
00000040: d5b4 01bc 969e 703d 4037 6cbd 4dbb 26be
00000050: 54bd 19bd f7d4 cbbd 6831 93be 4d04 a4bd
00000060: feda 7c3d 9c4a cfbd 82df fc3b d84a b1bd
00000070: ff53 4abc 700d ebbc ef98 143d 775f be3d
00000080: e6bd 603e 258a b5bc b029 59bd 9d3f 1e3d
00000090: 8192 acbd 72d8 3fbe 70e3 01be 5348 dbbd
000000a0: 5c02 cfbe 0ad8 b9be fd0c 01bc d206 a33d
000000b0: 42a6 6fbe ab55 cdbd cdb9 6dbe 15d7 09be
000000c0: fe68 48be 79cd e1bc 72ba adbd 398d 5abe
000000d0: 8cb4 54bd 8c5a 4bbd f1cc afbe f6c7 acbd
000000e0: 04d6 10bd f22a 95bd 3e9e 08be 97b8 b9bd
000000f0: aacd b9bd f811 023e 6144 a2be 4cc8 8f3d
00000100: ba75 8b3d 808d bb3b 300e f33c 76f7 b63d
00000110: 5017 903d ee73 9abd 7e65 823d 9882 c9bd
00000120: 0086 1fbc c833 b93d 40d4 793b d05c 243d
00000130: 92bf c4bd e8fe 663d 4010 1a3c de27 bf3d
00000140: c481 223d 14de d7bd 0061 6ebd c42a 933d
00000150: c66b 8e3d 685d 433d 48c3 d73d 307f 753d
00000160: 0a2d ecbd 7a3e 9bbd c8eb 5b3d c6e3 cbbd
00000170: 2c05 25bd 9a44 a53d e602 9e3d 88b4 1ebd
00000180: a0ee 393d 185b 80bd 1e58 b33d b872 703d
00000190: 8e08 c2bd 00d8 543d d48c 453d 3c45 003d
000001a0: 3073 363c 383e 2f3d 4e62 d0bd a212 b3bd
000001b0: e252 babd 2a4f d4bd 4064 4ebb 448f b8bd
000001c0: f88a 6c3d 7c51 10bd 98bc 93bc 80f1 f73a
000001d0: d0e5 4abc 6ceb 373d 5016 b6bd 3244 95bd
000001e0: 703b 973c 607d ff3d 20ea 70bd 8022 95ba
000001f0: e4b2 ed3d 7429 513d 88dd b9bd a0a3 f0bd
00000200: 2b82 a03d 3429 e8bc 3209 8fbc 0c22 763d
00000210: 1c75 58bc 7a7c a7bc da5b adbd 8cdd 70bd
00000220: fcbb 8d3d f78b 5f3d 8245 823d 8c80 46bd
00000230: e9b0 363b 2681 113d 3b8a 833d 0ac1 493d
00000240: 61b8 d2bb 9d49 7a3c beb7 293d 17bd 703c
00000250: bb19 dcbc ce21 97bd 461e 473d 4735 403c
00000260: ae59 ecbd 8fab 403d 16a8 0f3c f632 783d
00000270: 1ca3 313d 9e18 ae3d 98e3 a7bb 144f 3bbc
00000280: 304f 133c 412e 70bd f355 4cbc 52e2 903d
00000290: b870 e4bc 0120 6a3b 5877 b63d 0756 36bd
000002a0: 0548 ad3b 9687 0a3b 713b b2bc 0c31 69bd
000002b0: 572d 5e3d 5833 96bd 31b3 afbc e344 8d3c
000002c0: 1f77 b03c b765 b93c 8576 98bd 617e 6b3d
000002d0: 76cb 2d3c 84f7 243d d42d 08bd ecf4 78bc
000002e0: 7fc5 8bbd 331b e6bd 728b 703d d332 813d
000002f0: d5fd b8bd 9861 acba 5505 0a3b 4edd d6bb
00000300: d08f 2abd 4884 72bc 8dea cd3c 2364 acbe
00000310: c8e3 92bd 8cd2 0fbe b158 14bd 3e25 9dbd
00000320: 337f 02bd ff6d ae3d 6670 a0bb d871 05bd
00000330: 2e1a f4bd f489 05be 7172 833d 939e 55be
00000340: 5e8f 52ba 1ee9 01be a77c c7bd c57c 0cbe
00000350: a838 3ebd 7e2f 89bc dac5 aabe bf8c da3c
00000360: e73c 033e 4efd 17be ff72 f9bd 54fa 8f3d
00000370: 1014 823d 4c5e 5d3b 742d fbbd 55b2 bbbc
00000380: bd6d 7b3d ca6b 063d a3e7 4abe be01 febd
00000390: b4c8 423d 0c26 253d 2bb9 abbd 76ff 173d
000003a0: c11e c4be 4c71 92be b398 33be a15e ee3d
000003b0: f864 bcbd 6fe6 01be 05f4 52be 9047 26be
000003c0: 7054 16be f08f ad3c 97b1 aa3a 068a 8bbd
000003d0: 1f21 dfbc 8b6f 27bd 2093 b6be 6d8b 2fbe
000003e0: 40ad dc3c d9a0 df3d 35ca 2ebe 4fad afbb
000003f0: 70b5 e1bb 419d f9bc 2b80 10be 7a38 2e3d
0.14490503 -0.19439006 0.090826824 -0.3836203 -0.18409543 -0.1945487 0.046201497 -0.16817378
-0.035308864 0.05605026 -0.035677932 0.028159466 -0.2529887 -0.063187964 0.15288028 -0.13563079
-0.007916649 0.05874499 -0.057669878 -0.16282387 -0.037534073 -0.09952729 -0.2874863 -0.08008633
0.061732285 -0.101216525 0.007717074 -0.086568534 -0.012349128 -0.028692931 0.03627866 0.09295552
0.2194744 -0.022160599 -0.053018272 0.038634885 -0.08426381 -0.18734911 -0.12684417 -0.10707154
-0.40431488 -0.36297637 -0.007876632 0.07960285 -0.23403266 -0.100261055 -0.23215409 -0.13460954
-0.19571301 -0.027563797 -0.08482827 -0.21342935 -0.051929995 -0.0496469 -0.34336045 -0.08436577
-0.03536035 -0.07283582 -0.13341615 -0.09068411 -0.090724304 0.12702167 -0.31692794 0.070206255
0.06809564 0.005723655 0.029669851 0.08933918 0.070356965 -0.07541643 0.06367014 -0.09839362
-0.009736538 0.090430796 0.0038120896 0.040127575 -0.09606852 0.05639544 0.009403288 0.09333776
0.039674535 -0.10540405 -0.058197975 0.07185891 0.0695415 0.0476965 0.10535294 0.05993575
-0.11532028 -0.07580276 0.053691655 -0.09955554 -0.040288135 0.08069725 0.077153966 -0.038746387
0.045393586 -0.06267375 0.087570414 0.058703154 -0.09474288 0.051963806 0.048230007 0.031316027
0.011135861 0.042783946 -0.10175 -0.08743788 -0.0909784 -0.10366662 -0.003149286 -0.09011701
0.05774972 -0.03523396 -0.018034264 0.0018916577 -0.012383893 0.04490225 -0.088909745 -0.07288398
0.01846096 0.12475085 -0.05881703 -0.001137808 0.11606386 0.051064923 -0.09075457 -0.11749959
0.078373276 -0.02833996 -0.01746044 0.060091063 -0.013211515 -0.020445097 -0.08464785 -0.058805034
0.06920621 0.05457684 0.06360914 -0.048462436 0.0027876443 0.035523556 0.0642285 0.049256362
-0.006430671 0.01527634 0.041434996 0.01469352 -0.026867738 -0.073794946 0.048612855 0.011731452
-0.115405425 0.04703861 0.008768102 0.060595475 0.043368444 0.08500789 -0.005123567 -0.011432428
0.008991048 -0.05863786 -0.012471664 0.07074417 -0.02788578 0.0035724642 0.08909482 -0.044515636
0.0052881264 0.0021137944 -0.02175686 -0.05693154 0.05424246 -0.07334012 -0.02144775 0.017244762
0.021541176 0.02263151 -0.07444481 0.05749357 0.010607591 0.04027511 -0.03324683 -0.015195113
-0.06824779 -0.112356566 0.058726735 0.06308522 -0.090327896 -0.0013151644 0.0021060307 -0.0065571433
-0.041641057 -0.014802046 0.025136257 -0.33670148 -0.07172352 -0.14045161 -0.036217395 -0.07673119
-0.031859588 0.08517074 -0.0048962114 -0.032579273 -0.11919056 -0.13040906 0.06418312 -0.20861273
-0.00080322276 -0.12686583 -0.097405724 -0.13719471 -0.04644075 -0.016746279 -0.33354074 0.026678441
0.12816201 -0.14842722 -0.12180137 0.07030168 0.06351483 0.003377813 -0.12264529 -0.022912184
0.06138395 0.03281764 -0.19814925 -0.12402676 0.047554687 0.040319487 -0.08384927 0.03710886
-0.38304713 -0.28602064 -0.17538719 0.11639143 -0.09198946 -0.1268556 -0.20600899 -0.16238236
-0.14680648 0.021186799 0.0013022897 -0.06813435 -0.027237473 -0.04087786 -0.35659122 -0.1714303
0.02693808 0.10919351 -0.17069323 -0.005361236 -0.006888084 -0.030470492 -0.14111392 0.04253433
