back-end/analysis/data/set/pred_model.pth (torch, 4751 bytes, 7 tensors)

weight_ih_l0 f4 [24, 1]
0.70729 0.7275166 0.5567922 0.65290725 0.6374456 0.6490987 0.07098627 -0.23675634
0.36411405 -0.2661491 0.39427668 -0.0069020092 0.50061005 -0.38501468 0.6055984 -0.9075368
0.7975559 0.603689 0.91346604 0.819273 0.48228 0.78847736 0.6889047 0.8572589
00000000: f510 353f 873e 3a3f ef89 0e3f ee24 273f
00000010: a32f 233f 552b 263f 4061 913d 4170 72be
00000020: 286d ba3e b244 88be a2de c93e 402a e2bb
00000030: fb27 003f a520 c5be 7f08 1b3f 5554 68bf
00000040: a02c 4c3f 5d8b 1a3f e9d8 693f e0bb 513f
00000050: 67ed f63e a7d9 493f 0f5c 303f 5275 5b3f

weight_hh_l0 f4 [24, 6]
-0.07135427 -0.34009844 0.20775265 -0.33538413 -0.22915383 -0.175067 0.026863217 -0.3923448
0.23550117 -0.14424542 0.35208935 -0.115508616 0.30646378 -0.2099807 -0.037493378 0.16484016
-0.061559945 0.037404 0.32233757 -0.30498064 -0.2304475 -0.18383181 0.2007798 -0.30143258
0.31788188 0.10796118 0.22951055 -0.23438704 -0.29361627 0.28113627 0.3122667 -0.34129828
0.11999905 -0.38321328 0.27232718 -0.19947597 -0.34513354 0.03362578 -0.006363362 0.13895845
0.26059186 0.04496464 -0.33075747 -0.15818465 -0.082218796 0.032919973 0.12848282 -0.29611284
0.39938354 0.09759724 0.09214592 0.060151428 -0.025580585 -0.10910654 0.14509857 0.37726682
0.34109938 -0.03299409 -0.12755424 0.32214904 0.19872159 -0.08326435 -0.38311452 0.19667274
-0.14951444 0.047615886 -0.057718128 -0.3950764 0.3318931 0.39243978 -0.2647391 0.0032368004
0.14989263 -0.22318935 0.18568927 0.36431277 0.37769592 -0.35360232 -0.3343564 -0.14420274
0.05273992 0.24956495 -0.1479125 0.17537934 0.31425148 -0.29585475 0.3392359 -0.1197201
-0.17737468 0.07154292 -0.33816618 -0.27520853 0.01305756 0.08724663 0.09162769 0.17367458
-0.10077864 0.042221487 0.39017057 0.32119286 0.28302854 -0.12659258 0.2632454 -0.29931748
0.36094493 0.040480614 0.33705896 -0.23085918 -0.31036317 -0.3546898 -0.246491 0.36842418
-0.3853436 0.20732272 -0.22184882 -0.011452943 -0.3044566 -0.16161893 0.25731713 -0.07366401
-0.35941496 0.37741464 0.28139788 0.028947473 -0.353675 -0.35880736 -0.10347712 -0.19224459
0.13551134 -0.27508053 -0.3306194 -0.056846738 0.12811339 -0.040195584 -0.13205749 -0.05520904
0.39201754 -0.09269145 0.33678055 -0.3064921 -0.30808496 0.34142047 0.21613735 -0.21478802
00000000: 3022 92bd 6221 aebe 1cbd 543e 78b7 abbe
00000010: 4da7 6abe c344 33be 4010 dc3c 6be1 c8be
00000020: 3827 713e 12b5 13be 0e45 b43e c88f ecbd
00000030: d2e8 9c3e 2e05 57be a892 19bd dccb 283e
00000040: 4826 7cbd f034 193d 6e09 a53e 6c26 9cbe
00000050: 6efa 6bbe 683e 3cbe 3899 4d3e 5f55 9abe
00000060: 6ac1 a23e c01a dd3d d004 6b3e 2803 70be
00000070: df54 96be 18f1 8f3e 6ce1 9f3e a6be aebe
00000080: 10c2 f53d 8834 c4be 786e 8b3e 6e43 4cbe
00000090: 58b5 b0be 30bb 093d c083 d0bb 204b 0e3e
000000a0: 4c6c 853e d82c 383d 0b59 a9be 28fb 21be
000000b0: 5462 a8bd 18d7 063d 0091 033e 1a9c 97be
000000c0: 007c cc3e 10e1 c73d 00b7 bc3d 5861 763d
000000d0: 608e d1bc 4073 dfbd b894 143e 1e29 c13e
000000e0: 94a4 ae3e d024 07bd 949d 02be b8f0 a43e
000000f0: ac7d 4b3e 8086 aabd 9627 c4be 9464 493e
00000100: 501a 19be e008 433d d869 6cbd 7447 cabe
00000110: e4ed a93e deed c83e e28b 87be 8020 543b
00000120: 747d 193e c08b 64be 5425 3e3e 3487 ba3e
00000130: 5c61 c13e 5d0b b5be c330 abbe e2a9 13be
00000140: d005 583d f48d 7f3e 6076 17be a496 333e
00000150: 92e5 a03e 467a 97be 54b0 ad3e d02f f5bd
00000160: b5a1 35be 1885 923d 1e24 adbe 22e8 8cbe
00000170: 60ef 553c 5cae b23d 4ca7 bb3d c0d7 313e
00000180: 0865 cebd 70f0 2c3d 70c4 c73e 6473 a43e
00000190: 1ee9 903e 7ca1 01be 1ac8 863e 2440 99be
000001a0: c6cd b83e 00cf 253d fe92 ac3e 5966 6cbe
000001b0: ece7 9ebe e799 b5be 2368 7cbe 18a2 bc3e
000001c0: c24b c5be 684c 543e 562c 63be 20a5 3bbc
000001d0: bce1 9bbe 6f7f 25be 12bf 833e 28dd 96bd
000001e0: 3d05 b8be 7e3c c13e 6213 903e 4023 ed3c
000001f0: e414 b5be 99b5 b7be d0eb d3bd c4db 44be
00000200: 7cc3 0a3e 5bd7 8cbe f246 a9be 20d8 68bd
00000210: 2830 033e 20a4 24bd 143a 07be e022 62bd
00000220: 86b6 c83e 04d5 bdbd 806e ac3e 88ec 9cbe
00000230: 50bd 9dbe aace ae3e 1c53 5d3e 64f1 5bbe

bias_ih_l0 f4 [24]
0.27176636 -0.26889598 0.59280777 0.65561104 0.5160205 0.12915564 -0.061448246 -0.21243545
-0.0800347 0.3122821 -0.23808904 -0.0005425811 0.40089664 -0.094762646 -0.09835887 -0.17446381
0.1878753 0.11198088 -0.09910074 -0.025598077 0.09452605 0.040994663 0.20277712 -0.07166367
00000000: f624 8b3e bcac 89be 40c2 173f 20d6 273f
00000010: eb19 043f 6041 043e 28b1 7bbd ae88 59be
00000020: 3ce9 a3bd 70e3 9f3e 9dcd 73be 003c 0eba
00000030: 5342 cd3e eb12 c2bd 6070 c9bd a4a6 32be
00000040: 6262 403e 3b56 e53d 54f5 cabd 0fb3 d1bc
00000050: e096 c13d 05ea 273d cea4 4f3e 67c4 92bd

bias_hh_l0 f4 [24]
0.50648594 0.27824736 -0.19323584 0.30942148 -0.001993961 0.030563116 0.39480972 -0.06224367
0.020618409 0.28232718 -0.11117637 -0.3057959 0.18806994 -0.47662514 0.27022624 0.15782928
-0.016827779 0.4030052 -0.13911936 0.31734374 0.46314898 0.6463082 0.11131715 0.4039943
00000000: 10a9 013f 7076 8e3e 9edf 45be 7e6c 9e3e
00000010: 1dad 02bb 805f fa3c 8024 ca3e 38f3 7ebd
00000020: f0e7 a83c 308d 903e 70b0 e3bd 4891 9cbe
00000030: 6895 403e 3608 f4be 185b 8a3e 009e 213e
00000040: 69da 89bc b356 ce3e 4e75 0ebe e17a a23e
00000050: dd21 ed3e 7474 253f 3ffa e33d 57d8 ce3e

weight f4 [1, 6]
0.4780034 -0.4175291 0.32064256 -0.6394188 0.57185477 0.6161203
00000000: ddbc f43e 60c6 d5be 432b a43e f3b0 23bf
00000010: 1365 123f 0fba 1d3f

hidden f4 [1, 10, 6]
0.19612578 -0.18260181 0.11623863 -0.102379695 0.12627575 0.1939998 0.15358134 -0.14560126
0.065063514 -0.008909139 0.061656337 0.14625847 0.24408205 -0.22505783 0.17319392 -0.20619096
0.19798343 0.24686159 0.27291837 -0.25100502 0.20677446 -0.26462212 0.23941836 0.27807382
0.3284758 -0.30192226 0.2696146 -0.36509576 0.31438208 0.33689696 0.34399435 -0.31636637
0.28668335 -0.3901224 0.33408856 0.35301334 0.34453762 -0.3168738 0.2872769 -0.39097476
0.33476856 0.3535751 0.34241387 -0.3148908 0.284955 -0.3876338 0.33210632 0.35137823
0.2966103 -0.27256742 0.2338915 -0.3095283 0.2722147 0.30337274 0.26650333 -0.24520476
0.19935593 -0.25196236 0.23033753 0.2711696
00000000: 32d5 483e f8fb 3abe 850e ee3d 72ac d1bd
00000010: 6e4e 013e e2a7 463e 6d44 1d3e 7f18 15be
00000020: 0540 853d a3f7 11bc 5b8b 7c3d c8c4 153e
00000030: a5f0 793e 8f75 66be bf59 313e b923 53be
00000040: 2bbc 4a3e 49c9 7c3e f5bb 8b3e bb83 80be
00000050: afbc 533e 8d7c 87be 162a 753e b15f 8e3e
00000060: fb2d a83e 8e95 9abe ed0a 8a3e d5ed babe
00000070: b0f6 a03e c27d ac3e 0720 b03e c6fa a1be
00000080: 29c8 923e 20be c7be a80d ab3e 2abe b43e
00000090: 3c67 b03e 483d a2be f515 933e d82d c8be
000000a0: c966 ab3e cc07 b53e df50 af3e 5e39 a1be
000000b0: 9fe5 913e f077 c6be d709 aa3e d9e7 b33e
000000c0: 4edd 973e f58d 8bbe 4181 6f3e 7e7a 9ebe
000000d0: ba5f 8b3e ac53 9b3e 2073 883e f516 7bbe
000000e0: f623 4c3e 3601 81be 9add 6b3e bed6 8a3e

hidden f4 [1, 10, 6]
0.42749816 -0.30762255 0.17850848 -0.14737494 0.20959324 0.32176825 0.36329505 -0.25987494
0.10263733 -0.013383449 0.10703716 0.2564583 0.49278486 -0.35962152 0.2601486 -0.2888236
0.31697392 0.38969785 0.52923733 -0.3903598 0.30744234 -0.367388 0.37705404 0.42822748
0.59477067 -0.44911864 0.39504147 -0.5030884 0.48315772 0.49851835 0.6121318 -0.46551558
0.4187213 -0.53718245 0.5105576 0.5173589 0.6127328 -0.46609 0.41954422 -0.538346
0.5114994 0.5180129 0.6103806 -0.46384478 0.41632482 -0.53378636 0.5078107 0.5154543
0.5578765 -0.415456 0.34534976 -0.42784518 0.4238485 0.45878556 0.5212872 -0.3835442
0.29703277 -0.35037255 0.36398497 0.41978914
00000000: 0ae1 da3e b480 9dbe edca 363e 75e9 16be
00000010: 9c9f 563e cfbe a43e cf01 ba3e 540e 85be
00000020: 8533 d23d 4146 5bbc 4c36 db3d 814e 833e
00000030: 4c4e fc3e 5020 b8be 3332 853e b0e0 93be
00000040: 684a a23e 7a86 c73e 197c 073f 3ddd c7be
00000050: 1569 9d3e 481a bcbe 3a0d c13e a240 db3e
00000060: e442 183f e1f2 e5be e042 ca3e 67ca 00bf
00000070: 7360 f73e cc3d ff3e abb4 1c3f 0f58 eebe
00000080: a362 d63e ca84 09bf e7b3 023f a271 043f
00000090: 0fdc 1c3f 59a3 eebe 80ce d63e 0bd1 09bf
000000a0: a0f1 023f 7e9c 043f e741 1c3f 107d edbe
000000b0: 8728 d53e 39a6 08bf e2ff 013f d0f4 033f
000000c0: ffd0 0e3f a6b6 d4be afd1 b03e 860e dbbe
000000d0: ac02 d93e f1e5 ea3e 1473 053f e85f c4be
000000e0: ae14 983e 0864 b3be 3d5c ba3e 9aee d63e
