back-end/analysis/data/set/pred_model_f.pth (torch, 4751 bytes, 7 tensors)

weight_ih_l0 f4 [24, 1]
0.14966764 0.6073481 0.44859013 0.79768234 0.21311139 0.704799 0.14983594 0.256576
0.08029893 0.025090963 -0.21569021 -0.30918023 0.45517993 -0.89773583 0.85198647 0.25284183
0.75526184 -0.5209254 0.66577655 0.4494889 0.85936666 0.6253497 0.6284674 0.8094968
00000000: 7942 193e 2a7b 1b3f 9bad e53e e934 4c3f
00000010: df39 5a3e b56d 343f 986e 193e ee5d 833e
00000020: c473 a43d 908b cd3c e5dd 5cbe df4c 9ebe
00000030: 580d e93e 04d2 65bf c91b 5a3f 7c74 813e
00000040: d758 413f 5e5b 05bf 5570 2a3f 6923 e63e
00000050: 74ff 5b3f eb16 203f 3de3 203f 2f3b 4f3f

weight_hh_l0 f4 [24, 6]
-0.2785535 -0.35872298 0.3532704 0.06403476 0.111242354 0.35474873 0.1341334 -0.18413515
-0.38889495 -0.12715498 -0.39633107 0.062307715 -0.39079475 -0.3507333 0.26440132 -0.35761088
-0.3737534 -0.2982431 0.27183777 0.39679945 -0.26054272 0.37720025 -0.24829383 -0.034163654
-0.3807372 0.192765 0.34448653 0.15923369 -0.22629566 -0.36046565 -0.25902164 0.23855996
-0.351831 -0.2788524 0.31108254 -0.3013624 0.3070199 -0.058086306 0.32023966 -0.3423331
0.27350914 -0.34641004 0.021986276 0.38791835 -0.05599287 0.18552649 -0.08190334 -0.23405728
0.029032916 0.24841654 0.35055435 -0.24771756 0.30915368 -0.02140081 -0.021555156 0.06834471
0.25855082 0.3349796 0.16566515 -0.19792373 -0.13590208 -0.307228 0.26712096 -0.25391477
0.35951424 0.028714985 -0.3418292 0.031166911 0.31511295 -0.04672435 0.09817374 0.20209187
0.34563673 -0.03961435 0.19153124 -0.16727073 0.21631068 -0.22316311 -0.2520429 -0.39752367
-0.050400317 0.25827986 -0.22893839 -0.234763 -0.044240296 0.08576015 0.044466645 -0.12849215
0.25287604 -0.18078901 -0.31922588 -0.27838326 0.07305008 -0.36903736 -0.17937231 -0.14218041
-0.038440704 -0.36242852 0.22320294 0.17278808 -0.28122532 0.36358714 -0.07556689 -0.33654535
-0.02930975 -0.29550675 0.0752787 0.11626887 -0.25656492 -0.2927683 0.02215308 0.23491836
-0.035479516 0.14456499 -0.25387067 0.23392779 -0.3549837 -0.26120216 -0.32501265 -0.1001277
0.0052389503 -0.25254017 -0.32108963 -0.19826318 0.11667436 -0.29113835 0.02719161 0.07986939
-0.118692845 -0.0069187284 0.055321366 -0.26529658 0.3077137 0.11044371 0.32453483 0.27141434
0.01613471 0.36397362 0.13286734 0.0062020123 -0.17081039 0.39822876 0.34380233 0.37938106
00000000: 909e 8ebe 8aaa b7be dcdf b43e a824 833d
00000010: 08d3 e33d a0a1 b53e 445a 093e ed8d 3cbe
00000020: 3d1d c7be ea34 02be e8eb cabe 6036 7f3d
00000030: 4016 c8be 5193 b3be 9c5f 873e c618 b7be
00000040: 9b5c bfbe 52b3 98be 522e 8b3e 4c29 cb3e
00000050: db65 85be 6420 c13e bd40 7ebe 30ef 0bbd
00000060: fcef c2be 3064 453e 8a60 b03e 280e 233e
00000070: 0dba 67be f48e b8be 7c9e 84be 1049 743e
00000080: 3123 b4be bec5 8ebe 3646 9f3e 2c4c 9abe
00000090: b631 9d3e e8eb 6dbd 74f6 a33e 4946 afbe
000000a0: 6409 8c3e a85c b1be 901c b43c 3c9d c63e
000000b0: c858 65bd a8fa 3d3e f0bc a7bd b6ac 6fbe
000000c0: 70d6 ed3c e860 7e3e dc7b b33e aca9 7dbe
000000d0: 6449 9e3e c050 afbc 7094 b0bc 50f8 8b3d
000000e0: c660 843e 7282 ab3e 20a4 293e 85ac 4abe
000000f0: ea29 0bbe fd4c 9dbe 14c4 883e 1e01 82be
00000100: 4012 b83e b03b eb3c 3d04 afbe c051 ff3c
00000110: 7c56 a13e 0862 3fbd 500f c93d 2cf1 4e3e
00000120: 4cf7 b03e a842 22bd c420 443e 0549 2bbe
00000130: 8c80 5d3e df84 64be c40b 81be 3988 cbbe
00000140: 9070 4ebd 423d 843e d36e 6abe b665 70be
00000150: 5035 35bd 04a3 af3d a822 363d 7293 03be
00000160: f878 813e c120 39be 9371 a3be 4088 8ebe
00000170: 489b 953d 77f2 bcbe 60ad 37be be97 11be
00000180: 0074 1dbd 3b90 b9be 508f 643e 5cef 303e
00000190: c4fc 8fbe 1828 ba3e d0c2 9abd ac4f acbe
000001a0: 001b f0bc a94c 97be b82b 9a3d 601e ee3d
000001b0: 7a5c 83be bae5 95be 607a b53c 708e 703e
000001c0: f852 11bd d808 143e 56fb 81be c48a 6f3e
000001d0: 6cc0 b5be 4abc 85be 0f68 a6be c00f cdbd
000001e0: 80ab ab3b f24c 81be dc65 a4be 8105 4bbe
000001f0: f8f2 ee3d 1610 95be f0c0 de3c 9092 a33d
00000200: 3c15 f3bd 80b6 e2bb a898 623d f4d4 87be
00000210: a68c 9d3e 5030 e23d 6e29 a63e d2f6 8a3e
00000220: f02c 843c c05a ba3e 600e 083e 403a cb3b
00000230: ebe8 2ebe a4e4 cb3e dc06 b03e 3c3e c23e

bias_ih_l0 f4 [24]
-0.07117477 0.6702779 0.38103318 0.28870758 -0.124594554 0.039099243 -0.3915416 0.36664236
0.02308026 -0.19180946 -0.049197167 0.25939536 0.018713826 0.20684111 -0.30303296 0.50609124
0.22029762 -0.386631 0.051331256 0.6203589 0.17073798 -0.15574136 0.41806537 0.4175912
00000000: 14c4 91bd 5597 2b3f c816 c33e 7bd1 933e
00000010: 6e2b ffbd 8726 203d 2478 c8be 8cb8 bb3e
00000020: d012 bd3c b369 44be f882 49bd 78cf 843e
00000030: bd4d 993c 28ce 533e 2327 9bbe 328f 013f
00000040: b395 613e 80f4 c5be b940 523d d7cf 1e3f
00000050: f0d5 2e3e aa7a 1fbe aa0c d63e 84ce d53e

bias_hh_l0 f4 [24]
0.08253987 0.19174372 0.6616406 0.06890355 0.52895516 0.6014008 0.35244006 -0.38581452
-0.3721536 -0.11425349 -0.27003604 -0.033333182 0.15389702 -0.19222611 0.35323104 0.0881923
0.3878399 0.16376546 0.21071334 0.70480925 0.07618161 0.06537119 -0.24108148 -0.14232698
00000000: aa0a a93d 7758 443e 4761 293f 4e1d 8d3d
00000010: 9b69 073f 67f5 193f 0673 b43e 7b89 c5be
00000020: eb8a bebe bcfd e9bd 2a42 8abe 6088 08bd
00000030: 2e97 1d3e ecd6 44be b3da b43e 2a9e b43d
00000040: f492 c63e 22b2 273e 3dc5 573e 616e 343f
00000050: 1b05 9c3d 55e1 853d 10de 76be 2abe 11be

weight f4 [1, 6]
0.1579021 -0.74979246 0.48136765 0.2280116 0.5463956 -0.60800827
00000000: 17b1 213e 66f2 3fbf d275 f63e df7b 693e
00000010: 95e0 0b3f 6ea6 1bbf

hidden f4 [1, 10, 6]
0.041838463 0.03110287 0.004112841 0.13858342 0.16077949 -0.0704838 0.042056303 0.030348804
0.004657524 0.13879536 0.16112596 -0.07083 0.042379096 0.029230962 0.005465361 0.13910942
0.16163863 -0.071343265 0.042376652 0.02923945 0.0054592234 0.139107 0.16163474 -0.071339354
0.042371124 0.02925856 0.0054454138 0.13910167 0.16162598 -0.071330585 0.042533282 0.028696835
0.005851527 0.1392594 0.16188325 -0.07158852 0.04253757 0.028681964 0.005862275 0.13926359
0.16189006 -0.07159535 0.042460624 0.028948557 0.00566952 0.13918869 0.16176799 -0.07147293
0.042659633 0.028259037 0.006168127 0.1393823 0.16208355 -0.07178957 0.0423267 0.029412447
0.005334169 0.13905841 0.16155547 -0.071259916
00000000: cf5e 2b3d 72cb fe3c 03c5 863b d0e8 0d3e
00000010: 61a3 243e cf59 90bd 3b43 2c3d 0e9e f83c
00000020: 259e 983b 5f20 0e3e 34fe 243e 520f 91bd
00000030: b495 2d3d c575 ef3c c516 b33b b372 0e3e
00000040: 9984 253e 6b1c 92bd 2493 2d3d 9287 ef3c
00000050: 49e3 b23b 1172 0e3e 9483 253e 5e1a 92bd
00000060: 588d 2d3d a6af ef3c 716f b23b ab70 0e3e
00000070: 4881 253e c515 92bd 6137 2e3d a015 eb3c
00000080: 2bbe bf3b 049a 0e3e b9c4 253e 019d 92bd
00000090: e03b 2e3d 70f6 ea3c 5418 c03b 1d9b 0e3e
000000a0: 82c6 253e 95a0 92bd 31eb 2d3d 8625 ed3c
000000b0: 61c7 b93b 7b87 0e3e 82a6 253e 6660 92bd
000000c0: debb 2e3d 7f7f e73c 001e ca3b 3cba 0e3e
000000d0: 3bf9 253e 6906 93bd c35e 2d3d 5ff2 f03c
000000e0: 41ca ae3b 5465 0e3e cc6e 253e b8f0 91bd

hidden f4 [1, 10, 6]
0.075197205 0.03956588 0.00745841 0.30381477 0.30899075 -0.1267579 0.07555522 0.03859986
0.00844111 0.30414084 0.30954957 -0.12731531 0.0760852 0.0371685 0.009896452 0.30462366
0.3103759 -0.12814085 0.076081194 0.037179366 0.009885405 0.30461997 0.31036964 -0.12813458
0.076072134 0.03720383 0.009860547 0.30461174 0.3103555 -0.12812048 0.07633814 0.036484852
0.010591246 0.30485412 0.3107699 -0.12853499 0.076345176 0.036465824 0.010610577 0.30486053
0.31078085 -0.12854595 0.07621898 0.036807016 0.010263849 0.3047455 0.3105843 -0.12834926
0.07654532 0.035924632 0.011160448 0.30504292 0.31109238 -0.12885791 0.07599922 0.03740083
0.009660278 0.30454528 0.3102419 -0.12800688
00000000: fe00 9a3d d50f 223d ae65 f43b 9c8d 9b3e
00000010: 0934 9e3e d3cc 01be b2bc 9a3d e31a 1e3d
00000020: 954c 0a3c 59b8 9b3e 487d 9e3e f25e 02be
00000030: 8fd2 9b3d ff3d 183d ba24 223c a2f7 9b3e
00000040: 97e9 9e3e 5b37 03be 75d0 9b3d 6449 183d
00000050: 65f6 213c 26f7 9b3e c5e8 9e3e b635 03be
00000060: b5cb 9b3d 0b63 183d 228e 213c 12f6 9b3e
00000070: ebe6 9e3e 0432 03be 2c57 9c3d 2471 153d
00000080: e886 2d3c d715 9c3e 3b1d 9f3e ad9e 03be
00000090: dc5a 9c3d 305d 153d fcd7 2d3c ae16 9c3e
000000a0: ab1e 9f3e 8da1 03be b218 9c3d f4c2 163d
000000b0: b429 283c 9a07 9c3e e804 9f3e fd6d 03be
000000c0: cbc3 9c3d b525 133d 50da 363c 962e 9c3e
000000d0: 8047 9f3e 54f3 03be 7ba5 9b3d 9d31 193d
000000e0: 2546 1e3c 5ced 9b3e 07d8 9e3e 3c14 03be
